…
### Assistant:{<393><426><470><494>} (bottom right)
###
[INFO:swift] [LABELS_IDS] [-100, -100, -100, -100, -100, -100, -100, -100, -100, -100, -100, -100, -100, -100, -100, -100, -100, -100, -100, -100, -100, -100, -100, -100, -100, -100, -100, -100, -100, 58404, 80, 86, 80, 5122, 81, 79, 83, 5122, 81, 84, 77, 5122, 81, 86, 81, 38260, 662, 10811, 1288, 59604, 144, 8308]
[INFO:swift] [LABELS] [-100 * 29]{<393><426><470><494>} (bottom right)
###
[INFO:swift] model: PeftModelForCausalLM(
  (base_model): LoraModel(
    (model): LlavaLlamaForCausalLM(
      (model): LlavaLlamaModel(
        (embed_tokens): Embedding(64000, 4096)
        (layers): ModuleList(
          (0-31): 32 x LlamaDecoderLayer(
            (self_attn): LlamaAttention(
              (q_proj): lora.Linear(
                (base_layer): Linear(in_features=4096, out_features=4096, bias=False)
                (lora_dropout): ModuleDict(
                  (default): Dropout(p=0.05, inplace=False)
                )
                (lora_A): ModuleDict(
                  (default): Linear(in_features=4096, out_features=8, bias=False)
                )
                (lora_B): ModuleDict(
                  (default): Linear(in_features=8, out_features=4096, bias=False)
                )
                (lora_embedding_A): ParameterDict()
                (lora_embedding_B): ParameterDict()
                (lora_magnitude_vector): ModuleDict()
              )
              (k_proj): lora.Linear(
                (base_layer): Linear(in_features=4096, out_features=512, bias=False)
                (lora_dropout): ModuleDict(
                  (default): Dropout(p=0.05, inplace=False)
                )
                (lora_A): ModuleDict(
                  (default): Linear(in_features=4096, out_features=8, bias=False)
                )
                (lora_B): ModuleDict(
                  (default): Linear(in_features=8, out_features=512, bias=False)
                )
                (lora_embedding_A): ParameterDict()
                (lora_embedding_B): ParameterDict()
                (lora_magnitude_vector): ModuleDict()
              )
              (v_proj): lora.Linear(
                (base_layer): Linear(in_features=4096, out_features=512, bias=False)
                (lora_dropout): ModuleDict(
                  (default): Dropout(p=0.05, inplace=False)
                )
                (lora_A): ModuleDict(
                  (default): Linear(in_features=4096, out_features=8, bias=False)
                )
                (lora_B): ModuleDict(
                  (default): Linear(in_features=8, out_features=512, bias=False)
                )
                (lora_embedding_A): ParameterDict()
                (lora_embedding_B): ParameterDict()
                (lora_magnitude_vector): ModuleDict()
              )
              (o_proj): lora.Linear(
                (base_layer): Linear(in_features=4096, out_features=4096, bias=False)
                (lora_dropout): ModuleDict(
                  (default): Dropout(p=0.05, inplace=False)
                )
                (lora_A): ModuleDict(
                  (default): Linear(in_features=4096, out_features=8, bias=False)
                )
                (lora_B): ModuleDict(
                  (default): Linear(in_features=8, out_features=4096, bias=False)
                )
                (lora_embedding_A): ParameterDict()
                (lora_embedding_B): ParameterDict()
                (lora_magnitude_vector): ModuleDict()
              )
            )
            (mlp): LlamaMLP(
              (gate_proj): lora.Linear(
                (base_layer): Linear(in_features=4096, out_features=11008, bias=False)
                (lora_dropout): ModuleDict(
                  (default): Dropout(p=0.05, inplace=False)
                )
                (lora_A): ModuleDict(
                  (default): Linear(in_features=4096, out_features=8, bias=False)
                )
                (lora_B): ModuleDict(
                  (default): Linear(in_features=8, out_features=11008, bias=False)
                )
                (lora_embedding_A): ParameterDict()
                (lora_embedding_B): ParameterDict()
                (lora_magnitude_vector): ModuleDict()
              )
              (up_proj): lora.Linear(
                (base_layer): Linear(in_features=4096, out_features=11008, bias=False)
                (lora_dropout): ModuleDict(
                  (default): Dropout(p=0.05, inplace=False)
                )
                (lora_A): ModuleDict(
                  (default): Linear(in_features=4096, out_features=8, bias=False)
                )
                (lora_B): ModuleDict(
                  (default): Linear(in_features=8, out_features=11008, bias=False)
                )
                (lora_embedding_A): ParameterDict()
                (lora_embedding_B): ParameterDict()
                (lora_magnitude_vector): ModuleDict()
              )
              (down_proj): lora.Linear(
                (base_layer): Linear(in_features=11008, out_features=4096, bias=False)
                (lora_dropout): ModuleDict(
                  (default): Dropout(p=0.05, inplace=False)
                )
                (lora_A): ModuleDict(
                  (default): Linear(in_features=11008, out_features=8, bias=False)
                )
                (lora_B): ModuleDict(
                  (default): Linear(in_features=8, out_features=4096, bias=False)
                )
                (lora_embedding_A): ParameterDict()
                (lora_embedding_B): ParameterDict()
                (lora_magnitude_vector): ModuleDict()
              )
              (act_fn): SiLU()
            )
            (input_layernorm): LlamaRMSNorm((4096,), eps=1e-05)
            (post_attention_layernorm): LlamaRMSNorm((4096,), eps=1e-05)
          )
        )
        (norm): LlamaRMSNorm((4096,), eps=1e-05)
        (rotary_emb): LlamaRotaryEmbedding()
        (vision_tower): CLIPVisionTower(
          (vision_tower): CLIPVisionModel(
            (vision_model): CLIPVisionTransformer(
              (embeddings): CLIPVisionEmbeddings(
                (patch_embedding): Conv2d(3, 1280, kernel_size=(14, 14), stride=(14, 14), bias=False)
                (position_embedding): Embedding(1025, 1280)
              )
              (pre_layrnorm): LayerNorm((1280,), eps=1e-05, elementwise_affine=True)
              (encoder): CLIPEncoder(
                (layers): ModuleList(
                  (0-31): 32 x CLIPEncoderLayer(
                    (self_attn): CLIPSdpaAttention(
                      (k_proj): Linear(in_features=1280, out_features=1280, bias=True)
                      (v_proj): Linear(in_features=1280, out_features=1280, bias=True)
                      (q_proj): Linear(in_features=1280, out_features=1280, bias=True)
                      (out_proj): Linear(in_features=1280, out_features=1280, bias=True)
                    )
                    (layer_norm1): LayerNorm((1280,), eps=1e-05, elementwise_affine=True)
                    (mlp): CLIPMLP(
                      (activation_fn): GELUActivation()
                      (fc1): Linear(in_features=1280, out_features=5120, bias=True)
                      (fc2): Linear(in_features=5120, out_features=1280, bias=True)
                    )
                    (layer_norm2): LayerNorm((1280,), eps=1e-05, elementwise_affine=True)
                  )
                )
              )
              (post_layernorm): LayerNorm((1280,), eps=1e-05, elementwise_affine=True)
            )
          )
        )
        (mm_projector): Sequential(
          (0): Linear(in_features=1280, out_features=4096, bias=True)
          (1): LayerNorm((4096,), eps=1e-05, elementwise_affine=True)
          (2): GELU(approximate='none')
          (3): Linear(in_features=4096, out_features=4096, bias=True)
          (4): LayerNorm((4096,), eps=1e-05, elementwise_affine=True)
        )
      )
      (lm_head): Linear(in_features=4096, out_features=64000, bias=False)
    )
  )
)
[INFO:swift] model_parameter_info: PeftModelForCausalLM: 6732.9828M Params (18.1535M Trainable [0.2696%]), 0.0011M Buffers.
[WARNING:modelscope] Authentication has expired, please re-login for uploading or accessing controlled entities.
[WARNING:modelscope] Authentication has expired, please re-login for uploading or accessing controlled entities.
…
