…
-100, -100, -100, -100, -100, -100, -100, -100, -100, -100, -100, -100, -100, -100, -100, -100, -100, -100, -100, -100, -100, -100, -100, -100, -100, -100, -100, -100, -100, -100, -100, -100, -100, -100, -100, 339, 333, 17920, 1936, 19951, 1936, 17405, 1936, 21576, 51164, 451, 14989, 1436, 313, 92542]
[INFO:swift] [LABELS] [-100 * 289] {<393><426><470><494>} (bottom right)<|im_end|>
[INFO:swift] model: PeftModelForCausalLM(
  (base_model): LoraModel(
    (model): InternVLChatModel(
      (vision_model): InternVisionModel(
        (embeddings): InternVisionEmbeddings(
          (patch_embedding): Conv2d(3, 1024, kernel_size=(14, 14), stride=(14, 14))
        )
        (encoder): InternVisionEncoder(
          (layers): ModuleList(
            (0-23): 24 x InternVisionEncoderLayer(
              (attn): InternAttention(
                (qkv): Linear(in_features=1024, out_features=3072, bias=True)
                (attn_drop): Dropout(p=0.0, inplace=False)
                (proj_drop): Dropout(p=0.0, inplace=False)
                (proj): Linear(in_features=1024, out_features=1024, bias=True)
              )
              (mlp): InternMLP(
                (act): GELUActivation()
                (fc1): Linear(in_features=1024, out_features=4096, bias=True)
                (fc2): Linear(in_features=4096, out_features=1024, bias=True)
              )
              (norm1): LayerNorm((1024,), eps=1e-06, elementwise_affine=True)
              (norm2): LayerNorm((1024,), eps=1e-06, elementwise_affine=True)
              (drop_path1): Identity()
              (drop_path2): Identity()
            )
          )
        )
      )
      (language_model): InternLM2ForCausalLM(
        (model): InternLM2Model(
          (tok_embeddings): Embedding(92553, 4096, padding_idx=2)
          (layers): ModuleList(
            (0-31): 32 x InternLM2DecoderLayer(
              (attention): InternLM2Attention(
                (wqkv): lora.Linear(
                  (base_layer): Linear(in_features=4096, out_features=6144, bias=False)
                  (lora_dropout): ModuleDict(
                    (default): Dropout(p=0.05, inplace=False)
                  )
                  (lora_A): ModuleDict(
                    (default): Linear(in_features=4096, out_features=8, bias=False)
                  )
                  (lora_B): ModuleDict(
                    (default): Linear(in_features=8, out_features=6144, bias=False)
                  )
                  (lora_embedding_A): ParameterDict()
                  (lora_embedding_B): ParameterDict()
                  (lora_magnitude_vector): ModuleDict()
                )
                (wo): lora.Linear(
                  (base_layer): Linear(in_features=4096, out_features=4096, bias=False)
                  (lora_dropout): ModuleDict(
                    (default): Dropout(p=0.05, inplace=False)
                  )
                  (lora_A): ModuleDict(
                    (default): Linear(in_features=4096, out_features=8, bias=False)
                  )
                  (lora_B): ModuleDict(
                    (default): Linear(in_features=8, out_features=4096, bias=False)
                  )
                  (lora_embedding_A): ParameterDict()
                  (lora_embedding_B): ParameterDict()
                  (lora_magnitude_vector): ModuleDict()
                )
                (rotary_emb): InternLM2DynamicNTKScalingRotaryEmbedding()
              )
              (feed_forward): InternLM2MLP(
                (w1): lora.Linear(
                  (base_layer): Linear(in_features=4096, out_features=14336, bias=False)
                  (lora_dropout): ModuleDict(
                    (default): Dropout(p=0.05, inplace=False)
                  )
                  (lora_A): ModuleDict(
                    (default): Linear(in_features=4096, out_features=8, bias=False)
                  )
                  (lora_B): ModuleDict(
                    (default): Linear(in_features=8, out_features=14336, bias=False)
                  )
                  (lora_embedding_A): ParameterDict()
                  (lora_embedding_B): ParameterDict()
                  (lora_magnitude_vector): ModuleDict()
                )
                (w3): lora.Linear(
                  (base_layer): Linear(in_features=4096, out_features=14336, bias=False)
                  (lora_dropout): ModuleDict(
                    (default): Dropout(p=0.05, inplace=False)
                  )
                  (lora_A): ModuleDict(
                    (default): Linear(in_features=4096, out_features=8, bias=False)
                  )
                  (lora_B): ModuleDict(
                    (default): Linear(in_features=8, out_features=14336, bias=False)
                  )
                  (lora_embedding_A): ParameterDict()
                  (lora_embedding_B): ParameterDict()
                  (lora_magnitude_vector): ModuleDict()
                )
                (w2): lora.Linear(
                  (base_layer): Linear(in_features=14336, out_features=4096, bias=False)
                  (lora_dropout): ModuleDict(
                    (default): Dropout(p=0.05, inplace=False)
                  )
                  (lora_A): ModuleDict(
                    (default): Linear(in_features=14336, out_features=8, bias=False)
                  )
                  (lora_B): ModuleDict(
                    (default): Linear(in_features=8, out_features=4096, bias=False)
                  )
                  (lora_embedding_A): ParameterDict()
                  (lora_embedding_B): ParameterDict()
                  (lora_magnitude_vector): ModuleDict()
                )
                (act_fn): SiLU()
              )
              (attention_norm): InternLM2RMSNorm()
              (ffn_norm): InternLM2RMSNorm()
            )
          )
          (norm): InternLM2RMSNorm()
        )
        (output): Linear(in_features=4096, out_features=92553, bias=False)
      )
      (mlp1): Sequential(
        (0): LayerNorm((4096,), eps=1e-05, elementwise_affine=True)
        (1): Linear(in_features=4096, out_features=4096, bias=True)
        (2): GELU(approximate='none')
        (3): Linear(in_features=4096, out_features=4096, bias=True)
      )
    )
  )
)
[INFO:swift] model_parameter_info: PeftModelForCausalLM: 8094.2397M Params (18.8744M Trainable [0.2332%]), 268.4375M Buffers.
/root/.conda/envs/swift-new/lib/python3.10/site-packages/swift/trainers/mixin.py:78: FutureWarning: `tokenizer` is deprecated and will be removed in version 5.0.0 for `Seq2SeqTrainer.__init__`. Use `processing_class` instead.
…
